client/model.pt (torch, 11799 bytes, 5 tensors)

weight f4 [64, 1]
-0.6490022 0.39161146 -0.7563925 0.76497304 -0.559834 0.19776154 0.94880474 0.27562344
-0.9769317 -0.5720875 0.85055554 0.7720189 0.36460447 -0.045000434 -0.5101603 -0.7150239
-0.28255773 -0.16456616 -0.9108468 -0.8116487 -0.7397897 0.73984337 -0.5440061 0.08253145
0.74627876 0.2694193 0.2970853 0.10525429 0.99791753 0.124749064 0.033202767 0.8095349
-0.91812205 0.32374728 -0.3733139 -0.29401493 -0.060088277 0.23146176 0.4225446 -0.5842055
0.18544972 0.16908205 0.41103768 0.33262753 0.88229597 -0.29720235 0.12952054 -0.20199347
-0.9864985 -0.26134777 -0.5693644 -0.9028063 0.5976932 0.26424086 -0.28887904 -0.9266093
-0.4280833 0.6657361 -0.9159305 0.7334157 -0.7048155 -0.64143634 -0.3938228 -0.53479695
00000000: 0225 26bf 4c81 c83e f0a2 41bf 46d5 433f
00000010: 4851 0fbf 0082 4a3e dee4 723f 841e 8d3e
00000020: 3218 7abf 5474 12bf 02be 593f 08a3 453f
00000030: 70ad ba3e 6052 38bd de99 02bf ce0b 37bf
00000040: 68ab 90be 0884 28be 422d 69bf 36c8 4fbf
00000050: dc62 3dbf 6066 3d3f fc43 0bbf 4006 a93d
00000060: 200c 3f3f 54f1 893e 901b 983e 908f d73d
00000070: 8677 7f3f 707c ff3d a0ff 073d ae3d 4f3f
00000080: 0c0a 6bbf 34c2 a53e 0023 bfbe 2089 96be
00000090: 201f 76bd 5004 6d3e c457 d83e 7e8e 15bf
000000a0: 88e6 3d3e d823 2d3e 8873 d23e 284e aa3e
000000b0: 26de 613f e82a 98be 08a1 043e 60d7 4ebe
000000c0: 2a8b 7cbf 60cf 85be dec1 11bf 501e 67bf
000000d0: 6c02 193f 944a 873e f4e7 93be 4436 6dbf
000000e0: bc2d dbbe ae6d 2a3f 6c7a 6abf 22c1 3b3f
000000f0: ca6e 34bf 2c35 24bf 24a3 c9be 74e8 08bf

bias f4 [64]
-0.13569343 0.522817 -0.15654719 0.16760457 -0.38090515 -0.5049975 0.8837154 -0.80990636
0.9082881 -0.4034717 -0.14089048 0.14690244 -0.34495592 -0.22942817 -0.056702614 0.276677
-0.5633328 -0.6696937 -0.36835527 -0.13677573 -0.03878951 -0.3215325 0.6299691 -0.5600797
-0.57790196 0.453645 0.014577985 0.5187435 0.3756745 0.32460725 -0.91523504 0.2837559
-0.39135242 0.080510736 0.35699344 0.87400687 -0.516801 -0.43105567 0.5513574 0.98814976
0.6091418 0.048733592 -0.22226286 0.1456213 -0.28436744 -0.32039726 0.17119324 0.51882386
0.47532487 0.88358235 0.40177214 -0.89090025 -0.34388018 0.68176675 0.55840385 -0.49025
0.4984188 -0.06253159 0.5713239 0.3020835 0.80992794 0.5019431 0.95054567 0.9408301
00000000: 38f3 0abe 56d7 053f e84d 20be 88a0 2b3e
00000010: 0006 c3be 8447 01bf 2c3b 623f 0656 4fbf
00000020: 9285 683f d893 cebe 9845 10be 986d 163e
00000030: 109e b0be 38ef 6abe 0041 68bd 9ca8 8d3e
00000040: 9436 10bf 0c71 2bbf 1099 bcbe f00e 0cbe
00000050: c0e1 1ebd e89f a4be a845 213f 6261 0fbf
00000060: 62f1 13bf 2844 e83e 80d8 6e3c 60cc 043f
00000070: 6858 c03e ec32 a63e d84c 6abf 7448 913e
00000080: 585f c8be d0e2 a43d d8c7 b63e eabe 5f3f
00000090: 124d 04bf 54b3 dcbe c225 0d3f 62f7 7c3f
000000a0: b8f0 1b3f e09c 473d e098 63be c01d 153e
000000b0: 9c98 91be 1c0b a4be 484d 2f3e a4d1 043f
000000c0: c85d f33e 7432 623f 14b5 cd3e 0a12 64bf
000000d0: 1011 b0be 4488 2e3f 8ef3 0e3f 0c02 fbbe
000000e0: c030 ff3e 9010 80bd 4842 123f b0aa 9a3e
000000f0: 7057 4f3f 587f 003f f656 733f 3eda 703f

weight f4 [32, 64]
0.0001848489 0.0048132837 -0.10296422 0.063829884 -0.0057127923 0.1217895 -0.02398917 0.076231316
0.015388161 -0.0468764 -0.03669466 0.068649024 -0.050825194 -0.1189671 -0.0018450767 -0.060957327
0.024704948 0.09928957 -0.03172639 0.10712622 -0.06470387 -0.008744881 0.11152014 0.068938375
0.030280232 -0.058789954 -0.11474027 0.052600726 0.08131865 0.083343744 0.08864465 -0.0018046051
0.10888462 0.103552446 -0.08584447 0.05026546 -0.058304086 0.08222775 0.028484374 -0.07265209
-0.06783022 -0.08805488 0.11454359 0.0019747913 -0.061886147 -0.06474693 0.009775147 -0.07318008
-0.05667892 0.037337065 -0.090993896 0.019950569 0.009677216 -0.1002662 -0.06452371 0.019518182
0.108288854 -0.030941382 0.02382654 -0.027622774 -0.04437095 -0.042522565 -0.03456922 -0.071624085
0.08282986 -0.03665538 -0.030389994 0.050426304 -0.0035491288 -0.104815945 -0.0951689 -0.08194277
-0.010647714 0.079706505 -0.04932049 -0.09050821 0.0445994 0.09151767 -0.047628015 0.08358571
0.10867566 -0.107955486 -0.027847022 -0.11421561 0.0493394 0.112771764 -0.061299622 0.023043111
0.077056766 -0.06644812 -0.103248045 0.10168041 0.010773882 0.0015935749 -0.057575002 0.1141022
0.062943384 0.06813015 -0.07273899 0.10207082 0.08318032 -0.09993611 -0.055354983 -0.05499795
-0.07456018 0.10019487 0.030567974 0.03875114 0.08291283 -0.018541709 0.0503591 -0.021227106
-0.06045237 -0.004984215 0.11991191 -0.011853695 0.12325737 0.03190376 -0.024923146 -0.108762756
0.09003931 -0.018960267 0.035248414 0.0971867 0.02154167 -0.09851651 0.12131426 0.02019918
0.09953463 -0.017723814 -0.00600183 0.08235955 0.047526047 -0.0059581697 -0.026500583 -0.07030755
0.06634897 0.11426462 -0.0586036 0.013152897 0.094199434 0.03641036 -0.024004593 -0.02747105
0.11833434 -0.06122747 0.11567786 -0.04602152 -0.060498685 -0.020876959 0.02044928 0.054745674
-0.052986562 0.01258862 -0.10150379 -0.056837887 -0.030495197 -0.09884246 -0.03289114 0.07921541
0.0030087382 -0.12273337 0.06156221 -0.07745239 0.040093824 0.118563354 0.10353877 0.098999545
-0.041962102 0.024916008 0.055852696 -0.10832232 -0.10042472 -0.0051470697 -0.0811234 -0.12143344
0.046440244 0.06864877 -0.09482184 0.008564964 0.06141585 -0.08279452 -0.112682596 0.02466996
0.055063516 0.087838456 -0.018581808 -0.11560221 0.09781724 0.0011686981 -0.10636629 0.116199434
-0.029727593 0.034266695 0.010931686 -0.04338698 -0.08006477 -0.106128916 -0.040410966 -0.068169504
0.098829746 0.119954854 -0.12300943 -0.053857386 -0.028553829 -0.0040911734 -0.100452244 0.07708189
-0.037574872 -0.106509075 0.119162366 0.045663 -0.065948725 0.06475532 0.033682182 0.06260529
-0.04553704 -0.07143377 -0.113784775 -0.01687415 0.032504857 -0.09717117 0.09440637 0.012484461
0.031788588 0.108312204 -0.10115036 -0.07010257 -0.07364741 -0.02737464 -0.044944584 -0.00338839
-0.09047897 -0.09749523 -0.07433793 -0.03967753 0.09919977 0.055633917 0.015889034 -0.07164177
-0.042914093 0.011324808 0.06681545 -0.10394414 -0.117026195 0.06311402 -0.010952055 0.07579742
0.025383234 0.08154675 0.053647086 0.06254363 0.10306767 -0.09116076 0.039730147 -0.08129361
00000000: 00d4 4139 c0b8 9d3b e8de d2bd 3eb9 823d
00000010: 6032 bbbb c66c f93d f084 c4bc 2a1f 9c3d
00000020: a01e 7c3c 7801 40bd 244d 16bd dc97 8c3d
00000030: 142e 50bd 06a5 f3bd 80d6 f1ba 64ae 79bd
00000040: 0862 ca3c 5458 cb3d 88f3 01bd fe64 db3d
00000050: 7683 84bd b046 0fbc ac64 e43d 902f 8d3d
00000060: 400e f83c bccd 70bd f2fc eabd dc73 573d
00000070: 648a a63d 20b0 aa3d 548b b53d 8088 ecba
00000080: e6fe de3d 4e13 d43d 3acf afbd 28e3 4d3d
00000090: 44d0 6ebd 0667 a83d 1058 e93c 9eca 94bd
000000a0: 92ea 8abd 1e56 b4bd d495 ea3d 806b 013b
000000b0: 547c 7dbd 0a9a 84bd f027 203c 70df 95bd
000000c0: 2828 68bd c0ee 183d 025b babd 606f a33c
000000d0: 308d 1e3c 5e58 cdbd 0225 84bd 98e4 9f3c
000000e0: 8cc6 dd3d c878 fdbc e02f c33c 2849 e2bc
000000f0: 50be 35bd 242c 2ebd 7498 0dbd a6af 92bd
00000100: b4a2 a93d f423 16bd 70f4 f8bc d08b 4e3d
00000110: 8098 68bb bea9 d6bd eae7 c2bd 9cd1 a7bd
00000120: c073 2ebc 2a3d a33d 4804 4abd 5e5c b9bd
00000130: dcad 363d 9e6d bb3d 9815 43bd fc2e ab3d
00000140: 5891 de3d c417 ddbd 701f e4bc e0e9 e9bd
00000150: 1c18 4a3d e2f4 e63d 5015 7bbd e8c4 bc3c
00000160: f0cf 9d3d f415 88bd b673 d3bd d23d d03d
00000170: f084 303c 80df d03a c4d3 6bbd 6aae e93d
00000180: 76e8 803d d287 8b3d 2ef8 94bd 820a d13d
00000190: 725a aa3d 4eab ccbd e8bb 62bd 8845 61bd
000001a0: 02b3 98bd f832 cd3d b069 fa3c 84b9 1e3d
000001b0: 34ce a93d c8e4 97bc 5845 4e3d 78e4 adbc
000001c0: e89c 77bd a052 a3bb 6094 f53d 0036 42bc
000001d0: 5c6e fc3d 84ad 023d a02b ccbc 02bf debd
000001e0: 8866 b83d 9052 9bbc a460 103d d209 c73d
000001f0: 2878 b03c 06c3 c9bd 9c73 f83d c078 a53c
00000200: d0d8 cb3d 8831 91bc 00ab c4bb 20ac a83d
00000210: acaa 423d c03c c3bb c017 d9bc 68fd 8fbd
00000220: f8e1 873d 9203 ea3d 540a 70bd 407f 573c
00000230: a2eb c03d 0823 153d 48a5 c4bc f80a e1bc
00000240: 4659 f23d a8c9 7abd 84e8 ec3d 1081 3cbd
00000250: 78cd 77bd 2806 abbc 4085 a73c 003d 603d
00000260: 7008 59bd 8040 4e3c 38e1 cfbd d8ce 68bd
00000270: 10d1 f9bc ea6d cabd dcb8 06bd b03b a23d
00000280: 402e 453b a25b fbbd a828 7c3d 5c9f 9ebd
00000290: 6c39 243d 58d1 f23d 220c d43d 46c0 ca3d
000002a0: 74e0 2bbd a81c cc3c ccc5 643d 18d8 ddbd
000002b0: 7aab cdbd c0a8 a8bb 0624 a6bd 18b2 f8bd
000002c0: 2038 3e3d ba97 8c3d f431 c2bd 1054 0c3c
000002d0: 308f 7b3d 2c90 a9bd 22c6 e6bd a818 ca3c
000002e0: 488a 613d a6e4 b33d e038 98bc dac0 ecbd
000002f0: 6854 c83d 002f 993a 92d6 d9bd f8f9 ed3d
00000300: 4887 f3bc 3c5b 0c3d d01a 333c 8cb6 31bd
00000310: 00f9 a3bd 1e5a d9bd f885 25bd 749c 8bbd
00000320: 4067 ca3d e4aa f53d 5eec fbbd 9099 5cbd
00000330: b8e9 e9bc 400f 86bb e8b9 cdbd 1cdd 9d3d
00000340: 1ce8 19bd 6e21 dabd 660b f43d 2009 3b3d
00000350: 2010 87bd 709e 843d 54f6 093d 3437 803d
00000360: 0c85 3abd de4b 92bd fe07 e9bd a83b 8abc
00000370: d023 053d ae01 c7bd 2058 c13d a08b 4c3c
00000380: c034 023d cad2 dd3d ec27 cfbd f091 8fbd
00000390: 74d4 96bd c840 e0bc d017 38bd c00f 5ebb
000003a0: 0a4d b9bd 94ab c7bd 7c3e 98bd e884 22bd
000003b0: 4029 cb3d 64e0 633d b829 823c ecb8 92bd
000003c0: b0c6 2fbd b08b 393c 8ad6 883d aae0 d4bd
000003d0: 6eab efbd ec41 813d 4070 33bc ae3b 9b3d
000003e0: 80f0 cf3c fc01 a73d 0cbd 5b3d e016 803d
000003f0: 2415 d33d 7eb2 babd 14bc 223d 447d a6bd

bias f4 [32]
0.11382453 -0.08252087 0.042570785 -0.11507006 -0.118892044 -0.033743024 -0.037596837 -0.006153494
0.062073752 -0.060482174 0.10523532 -0.019643709 0.03649439 -0.103011295 -0.09307936 -0.12049706
0.08753508 -0.03911309 -0.07776277 -0.115706414 -0.04674296 0.02811636 -0.1042043 -0.01479353
-0.11668792 -0.04647091 -0.020860568 -0.01799871 -0.11978468 0.01450482 -0.036994353 0.058906943
00000000: d61c e93d b400 a9bd b45e 2e3d daa9 ebbd
00000010: ac7d f3bd 2036 0abd 24ff 19bd 40a3 c9bb
00000020: 0c41 7e3d 28bc 77bd 9e85 d73d d8eb a0bc
00000030: 247b 153d 96f7 d2bd 64a0 bebd 2ac7 f6bd
00000040: 9845 b33d 0c35 20bd 1642 9fbd 7cf7 ecbd
00000050: 8c75 3fbd 4854 e63c 1069 d5bd 9060 72bc
00000060: 14fa eebd 4858 3ebd c8e3 aabc 0872 93bc
00000070: ac51 f5bd a0a5 6d3c 6487 17bd 6848 713d

weight f4 [1, 32]
-0.15588497 -0.117235735 -0.000101763566 -0.0708124 0.091661766 0.068257704 -0.07319179 -0.047301512
0.10076397 0.120193705 0.033945955 0.094103776 -0.042100277 0.15286185 0.020544607 0.08402326
0.15441659 -0.082804225 0.09540478 -0.117495194 -0.14263454 -0.096921526 0.16418183 0.07628289
0.10417506 0.0007099426 0.05258991 0.12938099 -0.12633806 -0.028606309 0.14615941 -0.12321694
00000000: 4fa0 1fbe 4a19 f0bd e669 d5b8 1706 91bd
00000010: 2ab9 bb3d b2ca 8b3d 94e5 95bd 3bbf 41bd
00000020: 575d ce3d 1e28 f63d ea0a 0b3d 7bb9 c03d
00000030: 5771 2cbd d187 1c3e 2a4d a83c 6314 ac3d
00000040: 621f 1e3e 4395 a9bd 9563 c33d 52a1 f0bd
00000050: ca0e 12be cb7e c6bd 481f 283e 343a 9c3d
00000060: bc59 d53d 711b 3a3a 8468 573d 737c 043e
00000070: c45e 01be c757 eabc d0aa 153e 2a59 fcbd
