server/models/metrophonModel.pt (torch, 1695 bytes, 3 tensors)

fc1.weight f4 [15, 1]
-0.42343044 -0.5671818 0.8401941 -0.24575222 0.30345953 0.26645136 0.034986496 0.3069017
-0.731092 0.09450364 -0.5332054 0.0055879354 0.060789704 0.24804533 0.77482927
00000000: e0cb d8be d432 11bf f616 573f 78a6 7bbe
00000010: 0c5f 9b3e 506c 883e 004e 0f3d 3822 9d3e
00000020: d828 3bbf 208b c13d 2680 08bf 001b b73b
00000030: a0fe 783d 98ff 7d3e 365b 463f

fc1.bias f4 [15]
-0.120343804 0.51393485 -0.9981593 -0.49501443 -0.7717371 -0.8656987 -0.26725864 -0.39437103
-0.8977207 -0.7953619 0.048401475 0.41626418 0.85045433 -0.64604664 0.3679651
00000000: d076 f6bd 3c91 033f 5e87 7fbf 8872 fdbe
00000010: 9090 45bf 6e9e 5dbf 20d6 88be 00eb c9be
00000020: 06d1 65bf d69c 4bbf a040 463d 9420 d53e
00000030: 60b7 593f 5063 25bf ec65 bc3e

fc2.weight f4 [1, 15]
-0.062665015 -0.008443489 -0.12372709 -0.05640218 0.0053112847 0.055669468 0.19041865 0.18980339
-0.074263 0.15319315 0.111873455 0.24494721 0.1569986 -0.23500293 -0.13592324
00000000: 8456 80bd 8f56 0abc a164 fdbd f905 67bd
00000010: 490a ae3b ab05 643d 1bfd 423e d25b 423e
00000020: 3317 98bd aade 1c3e e91d e53d 71d3 7a3e
00000030: 3ec4 203e 9ca4 70be 762f 0bbe
